Loading datasets from: /workspace/data/komnet2
Found 42612 files belonging to 50 classes.
Using 34090 files for training.
Found 42612 files belonging to 50 classes.
Using 8522 files for validation.

--- MODEL ARCHITECTURE SUMMARY ---
Model: "VGG_No_Padding"
┏━━━━━━━━━━━━━━━━━━━━━━━━━━━━━━━━━━━━━━┳━━━━━━━━━━━━━━━━━━━━━━━━━━━━━┳━━━━━━━━━━━━━━━━━┓
┃ Layer (type)                         ┃ Output Shape                ┃         Param # ┃
┡━━━━━━━━━━━━━━━━━━━━━━━━━━━━━━━━━━━━━━╇━━━━━━━━━━━━━━━━━━━━━━━━━━━━━╇━━━━━━━━━━━━━━━━━┩
│ conv2d (Conv2D)                      │ (None, 254, 254, 64)        │           1,792 │
├──────────────────────────────────────┼─────────────────────────────┼─────────────────┤
│ conv2d_1 (Conv2D)                    │ (None, 252, 252, 64)        │          36,928 │
├──────────────────────────────────────┼─────────────────────────────┼─────────────────┤
│ max_pooling2d (MaxPooling2D)         │ (None, 126, 126, 64)        │               0 │
├──────────────────────────────────────┼─────────────────────────────┼─────────────────┤
│ conv2d_2 (Conv2D)                    │ (None, 124, 124, 128)       │          73,856 │
├──────────────────────────────────────┼─────────────────────────────┼─────────────────┤
│ conv2d_3 (Conv2D)                    │ (None, 122, 122, 128)       │         147,584 │
├──────────────────────────────────────┼─────────────────────────────┼─────────────────┤
│ max_pooling2d_1 (MaxPooling2D)       │ (None, 61, 61, 128)         │               0 │
├──────────────────────────────────────┼─────────────────────────────┼─────────────────┤
│ flatten (Flatten)                    │ (None, 476288)              │               0 │
├──────────────────────────────────────┼─────────────────────────────┼─────────────────┤
│ dense (Dense)                        │ (None, 1024)                │     487,719,936 │
├──────────────────────────────────────┼─────────────────────────────┼─────────────────┤
│ dropout (Dropout)                    │ (None, 1024)                │               0 │
├──────────────────────────────────────┼─────────────────────────────┼─────────────────┤
│ dense_1 (Dense)                      │ (None, 50)                  │          51,250 │
└──────────────────────────────────────┴─────────────────────────────┴─────────────────┘
 Total params: 488,031,346 (1.82 GB)
 Trainable params: 488,031,346 (1.82 GB)
 Non-trainable params: 0 (0.00 B)

Starting Training...
Epoch 1/10
1066/1066 - 192s - 180ms/step - accuracy: 0.6829 - loss: 1.3016 - val_accuracy: 0.9234 - val_loss: 0.2905
Epoch 2/10
1066/1066 - 127s - 119ms/step - accuracy: 0.9147 - loss: 0.3290 - val_accuracy: 0.9504 - val_loss: 0.1982
…
