Loading datasets from: /workspace/data/komnet2
Found 42612 files belonging to 50 classes.
Using 34090 files for training.
Found 42612 files belonging to 50 classes.
Using 8522 files for validation.

--- MODEL ARCHITECTURE SUMMARY ---
Model: "VGG_Face_With_Padding"
┏━━━━━━━━━━━━━━━━━━━━━━━━━━━━━━━━━━━━━━┳━━━━━━━━━━━━━━━━━━━━━━━━━━━━━┳━━━━━━━━━━━━━━━━━┓
┃ Layer (type)                         ┃ Output Shape                ┃         Param # ┃
┡━━━━━━━━━━━━━━━━━━━━━━━━━━━━━━━━━━━━━━╇━━━━━━━━━━━━━━━━━━━━━━━━━━━━━╇━━━━━━━━━━━━━━━━━┩
│ conv2d (Conv2D)                      │ (None, 256, 256, 64)        │           1,792 │
├──────────────────────────────────────┼─────────────────────────────┼─────────────────┤
│ conv2d_1 (Conv2D)                    │ (None, 256, 256, 64)        │          36,928 │
├──────────────────────────────────────┼─────────────────────────────┼─────────────────┤
│ max_pooling2d (MaxPooling2D)         │ (None, 128, 128, 64)        │               0 │
├──────────────────────────────────────┼─────────────────────────────┼─────────────────┤
│ conv2d_2 (Conv2D)                    │ (None, 128, 128, 128)       │          73,856 │
├──────────────────────────────────────┼─────────────────────────────┼─────────────────┤
│ conv2d_3 (Conv2D)                    │ (None, 128, 128, 128)       │         147,584 │
├──────────────────────────────────────┼─────────────────────────────┼─────────────────┤
│ max_pooling2d_1 (MaxPooling2D)       │ (None, 64, 64, 128)         │               0 │
├──────────────────────────────────────┼─────────────────────────────┼─────────────────┤
│ flatten (Flatten)                    │ (None, 524288)              │               0 │
├──────────────────────────────────────┼─────────────────────────────┼─────────────────┤
│ dense (Dense)                        │ (None, 1024)                │     536,871,936 │
├──────────────────────────────────────┼─────────────────────────────┼─────────────────┤
│ dropout (Dropout)                    │ (None, 1024)                │               0 │
├──────────────────────────────────────┼─────────────────────────────┼─────────────────┤
│ dense_1 (Dense)                      │ (None, 50)                  │          51,250 │
└──────────────────────────────────────┴─────────────────────────────┴─────────────────┘
 Total params: 537,183,346 (2.00 GB)
 Trainable params: 537,183,346 (2.00 GB)
 Non-trainable params: 0 (0.00 B)

Starting Training...
Epoch 1/10
1066/1066 - 202s - 189ms/step - accuracy: 0.2141 - loss: 3.1980 - val_accuracy: 0.8191 - val_loss: 0.7000
Epoch 2/10
1066/1066 - 136s - 128ms/step - accuracy: 0.8611 - loss: 0.5346 - val_accuracy: 0.9308 - val_loss: 0.2828
…
