Found 43056 files belonging to 52 classes.
Using 34445 files for training.
Found 43056 files belonging to 52 classes.
Using 8611 files for validation.

--- MODEL ARCHITECTURE SUMMARY ---
Model: "Cycks_With_Padding"
┏━━━━━━━━━━━━━━━━━━━━━━━━━━━━━━━━━━━━━━┳━━━━━━━━━━━━━━━━━━━━━━━━━━━━━┳━━━━━━━━━━━━━━━━━┓
┃ Layer (type)                         ┃ Output Shape                ┃         Param # ┃
┡━━━━━━━━━━━━━━━━━━━━━━━━━━━━━━━━━━━━━━╇━━━━━━━━━━━━━━━━━━━━━━━━━━━━━╇━━━━━━━━━━━━━━━━━┩
│ conv2d (Conv2D)                      │ (None, 256, 256, 32)        │             896 │
├──────────────────────────────────────┼─────────────────────────────┼─────────────────┤
│ batch_normalization                  │ (None, 256, 256, 32)        │             128 │
│ (BatchNormalization)                 │                             │                 │
├──────────────────────────────────────┼─────────────────────────────┼─────────────────┤
│ conv2d_1 (Conv2D)                    │ (None, 256, 256, 32)        │           9,248 │
├──────────────────────────────────────┼─────────────────────────────┼─────────────────┤
│ batch_normalization_1                │ (None, 256, 256, 32)        │             128 │
│ (BatchNormalization)                 │                             │                 │
├──────────────────────────────────────┼─────────────────────────────┼─────────────────┤
│ max_pooling2d (MaxPooling2D)         │ (None, 128, 128, 32)        │               0 │
├──────────────────────────────────────┼─────────────────────────────┼─────────────────┤
│ conv2d_2 (Conv2D)                    │ (None, 128, 128, 64)        │          18,496 │
├──────────────────────────────────────┼─────────────────────────────┼─────────────────┤
│ batch_normalization_2                │ (None, 128, 128, 64)        │             256 │
│ (BatchNormalization)                 │                             │                 │
├──────────────────────────────────────┼─────────────────────────────┼─────────────────┤
│ conv2d_3 (Conv2D)                    │ (None, 128, 128, 64)        │          36,928 │
├──────────────────────────────────────┼─────────────────────────────┼─────────────────┤
│ batch_normalization_3                │ (None, 128, 128, 64)        │             256 │
│ (BatchNormalization)                 │                             │                 │
├──────────────────────────────────────┼─────────────────────────────┼─────────────────┤
│ max_pooling2d_1 (MaxPooling2D)       │ (None, 64, 64, 64)          │               0 │
├──────────────────────────────────────┼─────────────────────────────┼─────────────────┤
│ conv2d_4 (Conv2D)                    │ (None, 64, 64, 128)         │          73,856 │
├──────────────────────────────────────┼─────────────────────────────┼─────────────────┤
│ batch_normalization_4                │ (None, 64, 64, 128)         │             512 │
│ (BatchNormalization)                 │                             │                 │
├──────────────────────────────────────┼─────────────────────────────┼─────────────────┤
│ conv2d_5 (Conv2D)                    │ (None, 64, 64, 128)         │         147,584 │
├──────────────────────────────────────┼─────────────────────────────┼─────────────────┤
│ batch_normalization_5                │ (None, 64, 64, 128)         │             512 │
│ (BatchNormalization)                 │                             │                 │
├──────────────────────────────────────┼─────────────────────────────┼─────────────────┤
│ max_pooling2d_2 (MaxPooling2D)       │ (None, 32, 32, 128)         │               0 │
├──────────────────────────────────────┼─────────────────────────────┼─────────────────┤
│ conv2d_6 (Conv2D)                    │ (None, 32, 32, 256)         │         295,168 │
├──────────────────────────────────────┼─────────────────────────────┼─────────────────┤
│ batch_normalization_6                │ (None, 32, 32, 256)         │           1,024 │
│ (BatchNormalization)                 │                             │                 │
├──────────────────────────────────────┼─────────────────────────────┼─────────────────┤
│ conv2d_7 (Conv2D)                    │ (None, 32, 32, 256)         │         590,080 │
├──────────────────────────────────────┼─────────────────────────────┼─────────────────┤
│ batch_normalization_7                │ (None, 32, 32, 256)         │           1,024 │
│ (BatchNormalization)                 │                             │                 │
├──────────────────────────────────────┼─────────────────────────────┼─────────────────┤
│ max_pooling2d_3 (MaxPooling2D)       │ (None, 16, 16, 256)         │               0 │
├──────────────────────────────────────┼─────────────────────────────┼─────────────────┤
│ global_average_pooling2d             │ (None, 256)                 │               0 │
│ (GlobalAveragePooling2D)             │                             │                 │
├──────────────────────────────────────┼─────────────────────────────┼─────────────────┤
│ dense (Dense)                        │ (None, 512)                 │         131,584 │
├──────────────────────────────────────┼─────────────────────────────┼─────────────────┤
│ dropout (Dropout)                    │ (None, 512)                 │               0 │
├──────────────────────────────────────┼─────────────────────────────┼─────────────────┤
│ dense_1 (Dense)                      │ (None, 52)                  │          26,676 │
└──────────────────────────────────────┴─────────────────────────────┴─────────────────┘
 Total params: 1,334,356 (5.09 MB)
 Trainable params: 1,332,436 (5.08 MB)
 Non-trainable params: 1,920 (7.50 KB)

Starting Training...
Epoch 1/10
1077/1077 - 68s - 63ms/step - accuracy: 0.2776 - loss: 2.8283 - val_accuracy: 0.1539 - val_loss: 3.9884
Epoch 2/10
1077/1077 - 38s - 35ms/step - accuracy: 0.7285 - loss: 0.9950 - val_accuracy: 0.7543 - val_loss: 0.8281
…
