Loading datasets from: /workspace/data/komnet2
Found 43056 files belonging to 52 classes.
Using 34445 files for training.
Found 43056 files belonging to 52 classes.
Using 8611 files for validation.

--- MODEL ARCHITECTURE SUMMARY ---
Model: "VGG_Face_With_Padding"
┏━━━━━━━━━━━━━━━━━━━━━━━━━━━━━━━━━━━━━━┳━━━━━━━━━━━━━━━━━━━━━━━━━━━━━┳━━━━━━━━━━━━━━━━━┓
┃ Layer (type)                         ┃ Output Shape                ┃         Param # ┃
┡━━━━━━━━━━━━━━━━━━━━━━━━━━━━━━━━━━━━━━╇━━━━━━━━━━━━━━━━━━━━━━━━━━━━━╇━━━━━━━━━━━━━━━━━┩
│ conv2d (Conv2D)                      │ (None, 256, 256, 64)        │           1,792 │
├──────────────────────────────────────┼─────────────────────────────┼─────────────────┤
│ conv2d_1 (Conv2D)                    │ (None, 256, 256, 64)        │          36,928 │
├──────────────────────────────────────┼─────────────────────────────┼─────────────────┤
│ max_pooling2d (MaxPooling2D)         │ (None, 128, 128, 64)        │               0 │
├──────────────────────────────────────┼─────────────────────────────┼─────────────────┤
│ conv2d_2 (Conv2D)                    │ (None, 128, 128, 128)       │          73,856 │
├──────────────────────────────────────┼─────────────────────────────┼─────────────────┤
│ conv2d_3 (Conv2D)                    │ (None, 128, 128, 128)       │         147,584 │
├──────────────────────────────────────┼─────────────────────────────┼─────────────────┤
│ max_pooling2d_1 (MaxPooling2D)       │ (None, 64, 64, 128)         │               0 │
├──────────────────────────────────────┼─────────────────────────────┼─────────────────┤
│ flatten (Flatten)                    │ (None, 524288)              │               0 │
├──────────────────────────────────────┼─────────────────────────────┼─────────────────┤
│ dense (Dense)                        │ (None, 1024)                │     536,871,936 │
├──────────────────────────────────────┼─────────────────────────────┼─────────────────┤
│ dropout (Dropout)                    │ (None, 1024)                │               0 │
├──────────────────────────────────────┼─────────────────────────────┼─────────────────┤
│ dense_1 (Dense)                      │ (None, 52)                  │          53,300 │
└──────────────────────────────────────┴─────────────────────────────┴─────────────────┘
 Total params: 537,185,396 (2.00 GB)
 Trainable params: 537,185,396 (2.00 GB)
 Non-trainable params: 0 (0.00 B)

Starting Training...
Epoch 1/10
1077/1077 - 139s - 130ms/step - accuracy: 0.6837 - loss: 1.3433 - val_accuracy: 0.9372 - val_loss: 0.2530
Epoch 2/10
1077/1077 - 83s - 77ms/step - accuracy: 0.9411 - loss: 0.2249 - val_accuracy: 0.9462 - val_loss: 0.2284
…
