…
onv.py:107: UserWarning: Do not pass an `input_shape`/`input_dim` argument to a layer. When using Sequential models, prefer using an `Input(shape)` object as the first layer in the model instead.  super().__init__(activity_regularizer=activity_regularizer, **kwargs)Model: "VGG_No_Padding"┏━━━━━━━━━━━━━━━━━━━━━━━━━━━━━━━━━━━━━━┳━━━━━━━━━━━━━━━━━━━━━━━━━━━━━┳━━━━━━━━━━━━━━━━━┓┃ Layer (type)                         ┃ Output Shape                ┃         Param # ┃┡━━━━━━━━━━━━━━━━━━━━━━━━━━━━━━━━━━━━━━╇━━━━━━━━━━━━━━━━━━━━━━━━━━━━━╇━━━━━━━━━━━━━━━━━┩│ conv2d (Conv2D)                      │ (None, 254, 254, 64)        │           1,792 │├──────────────────────────────────────┼─────────────────────────────┼─────────────────┤│ conv2d_1 (Conv2D)                    │ (None, 252, 252, 64)        │          36,928 │├──────────────────────────────────────┼─────────────────────────────┼─────────────────┤│ max_pooling2d (MaxPooling2D)         │ (None, 126, 126, 64)        │               0 │├──────────────────────────────────────┼─────────────────────────────┼─────────────────┤│ conv2d_2 (Conv2D)                    │ (None, 124, 124, 128)       │          73,856 │├──────────────────────────────────────┼─────────────────────────────┼─────────────────┤│ conv2d_3 (Conv2D)                    │ (None, 122, 122, 128)       │         147,584 │├──────────────────────────────────────┼─────────────────────────────┼─────────────────┤│ max_pooling2d_1 (MaxPooling2D)       │ (None, 61, 61, 128)         │               0 │├──────────────────────────────────────┼─────────────────────────────┼─────────────────┤│ flatten (Flatten)                    │ (None, 476288)              │               0 │├──────────────────────────────────────┼─────────────────────────────┼─────────────────┤│ dense (Dense)                        │ (None, 1024)                │     487,719,936 │├──────────────────────────────────────┼─────────────────────────────┼─────────────────┤│ dropout (Dropout)                    │ (None, 1024)                │               0 │├──────────────────────────────────────┼─────────────────────────────┼─────────────────┤│ dense_1 (Dense)                      │ (None, 52)                  │          53,300 │└──────────────────────────────────────┴─────────────────────────────┴─────────────────┘ Total params: 488,033,396 (1.82 GB) Trainable params: 488,033,396 (1.82 GB) Non-trainable params: 0 (0.00 B)Training completed in 10m 49s.1. Classification Report:                                    precision    recall  f1-score   support             gede satya bramananda       0.97      0.95    
…
